Posit mode
Model: "sequential"
_________________________________________________________________
Layer (type)                 Output Shape              Param #
=================================================================
conv2d (Conv2D)              (None, 30, 30, 32)        896
_________________________________________________________________
max_pooling2d (MaxPooling2D) (None, 15, 15, 32)        0
_________________________________________________________________
conv2d_1 (Conv2D)            (None, 13, 13, 64)        18496
_________________________________________________________________
max_pooling2d_1 (MaxPooling2 (None, 7, 7, 64)          0
_________________________________________________________________
conv2d_2 (Conv2D)            (None, 5, 5, 128)         73856
_________________________________________________________________
max_pooling2d_2 (MaxPooling2 (None, 3, 3, 128)         0
_________________________________________________________________
conv2d_3 (Conv2D)            (None, 1, 1, 128)         147584
_________________________________________________________________
max_pooling2d_3 (MaxPooling2 (None, 1, 1, 128)         0
_________________________________________________________________
flatten (Flatten)            (None, 128)               0
_________________________________________________________________
dense (Dense)                (None, 43)                5547
=================================================================
Total params: 246,379
Trainable params: 246,379
Non-trainable params: 0
_________________________________________________________________
DATASET: gtsrb
WARNING:tensorflow:From /home/matteo/PycharmProjects/seai_project/venv/lib/python3.8/site-packages/tensorflow/python/ops/array_ops.py:5059: calling gather (from tensorflow.python.ops.array_ops) with validate_indices is deprecated and will be removed in a future version.
…
