Float16 mode
Model: "sequential_2"
_________________________________________________________________
Layer (type)                 Output Shape              Param #
=================================================================
conv2d_8 (Conv2D)            (None, 30, 30, 32)        896
_________________________________________________________________
max_pooling2d_7 (MaxPooling2 (None, 15, 15, 32)        0
_________________________________________________________________
conv2d_9 (Conv2D)            (None, 13, 13, 64)        18496
_________________________________________________________________
max_pooling2d_8 (MaxPooling2 (None, 7, 7, 64)          0
_________________________________________________________________
conv2d_10 (Conv2D)           (None, 5, 5, 128)         73856
_________________________________________________________________
max_pooling2d_9 (MaxPooling2 (None, 3, 3, 128)         0
_________________________________________________________________
conv2d_11 (Conv2D)           (None, 1, 1, 128)         147584
_________________________________________________________________
max_pooling2d_10 (MaxPooling (None, 1, 1, 128)         0
_________________________________________________________________
flatten_1 (Flatten)          (None, 128)               0
_________________________________________________________________
dense_3 (Dense)              (None, 256)               33024
_________________________________________________________________
dense_4 (Dense)              (None, 128)               32896
_________________________________________________________________
dense_5 (Dense)              (None, 43)                5547
=================================================================
Total params: 312,299
Trainable params: 312,299
Non-trainable params: 0
_________________________________________________________________
DATASET: gtsrb
WARNING:tensorflow:From /home/matteo/PycharmProjects/seai_project/venv/lib/python3.8/site-packages/tensorflow/python/ops/array_ops.py:5059: calling gather (from tensorflow.python.ops.array_ops) with validate_indices is deprecated and will be removed in a future version.
…
