Float64 mode
Model: "sequential"
_________________________________________________________________
Layer (type)                 Output Shape              Param #
=================================================================
flatten (Flatten)            (None, 3072)              0
_________________________________________________________________
layer_normalization (LayerNo (None, 3072)              6144
_________________________________________________________________
dense (Dense)                (None, 300)               921900
_________________________________________________________________
dropout (Dropout)            (None, 300)               0
_________________________________________________________________
dense_1 (Dense)              (None, 300)               90300
_________________________________________________________________
dropout_1 (Dropout)          (None, 300)               0
_________________________________________________________________
dense_2 (Dense)              (None, 300)               90300
_________________________________________________________________
dense_3 (Dense)              (None, 43)                12943
=================================================================
Total params: 1,121,587
Trainable params: 1,121,587
Non-trainable params: 0
_________________________________________________________________
DATASET: gtsrb
WARNING:tensorflow:From /home/matteo/PycharmProjects/seai_project/venv/lib/python3.8/site-packages/tensorflow/python/ops/array_ops.py:5059: calling gather (from tensorflow.python.ops.array_ops) with validate_indices is deprecated and will be removed in a future version.
…
