Float64 mode
Model: "model_1"
_________________________________________________________________
Layer (type)                 Output Shape              Param #
=================================================================
input_4 (InputLayer)         [(None, 32, 32, 3)]       0
_________________________________________________________________
sequential_1 (Sequential)    (None, 32, 32, 3)         0
_________________________________________________________________
tf.math.truediv_1 (TFOpLambd (None, 32, 32, 3)         0
_________________________________________________________________
tf.math.subtract_1 (TFOpLamb (None, 32, 32, 3)         0
_________________________________________________________________
resnet50v2 (Functional)      (None, 1, 1, 2048)        23564800
_________________________________________________________________
my_glo_avg_pool (GlobalAvera (None, 2048)              0
_________________________________________________________________
predictions (Dense)          (None, 43)                88107
=================================================================
Total params: 23,652,907
Trainable params: 15,038,507
Non-trainable params: 8,614,400
_________________________________________________________________
DATASET: gtsrb
WARNING:tensorflow:From /home/matteo/PycharmProjects/seai_project/venv/lib/python3.8/site-packages/tensorflow/python/ops/array_ops.py:5059: calling gather (from tensorflow.python.ops.array_ops) with validate_indices is deprecated and will be removed in a future version.
…
