Float64 mode
Model: "sequential_1"
_________________________________________________________________
Layer (type)                 Output Shape              Param #
=================================================================
conv2d_3 (Conv2D)            (None, 30, 30, 32)        896
_________________________________________________________________
max_pooling2d_2 (MaxPooling2 (None, 15, 15, 32)        0
_________________________________________________________________
conv2d_4 (Conv2D)            (None, 13, 13, 64)        18496
_________________________________________________________________
max_pooling2d_3 (MaxPooling2 (None, 6, 6, 64)          0
_________________________________________________________________
conv2d_5 (Conv2D)            (None, 4, 4, 64)          36928
_________________________________________________________________
flatten_1 (Flatten)          (None, 1024)              0
_________________________________________________________________
dense_2 (Dense)              (None, 64)                65600
_________________________________________________________________
dense_3 (Dense)              (None, 43)                2795
=================================================================
Total params: 124,715
Trainable params: 124,715
Non-trainable params: 0
_________________________________________________________________
DATASET: gtsrb
WARNING:tensorflow:From /home/matteo/PycharmProjects/seai_project/venv/lib/python3.8/site-packages/tensorflow/python/ops/array_ops.py:5059: calling gather (from tensorflow.python.ops.array_ops) with validate_indices is deprecated and will be removed in a future version.
…
