Posit mode
Model: "sequential_1"
_________________________________________________________________
Layer (type)                 Output Shape              Param #
=================================================================
conv2d (Conv2D)              (None, 30, 30, 32)        896
_________________________________________________________________
max_pooling2d (MaxPooling2D) (None, 15, 15, 32)        0
_________________________________________________________________
conv2d_1 (Conv2D)            (None, 13, 13, 64)        18496
_________________________________________________________________
max_pooling2d_1 (MaxPooling2 (None, 6, 6, 64)          0
_________________________________________________________________
conv2d_2 (Conv2D)            (None, 4, 4, 64)          36928
_________________________________________________________________
flatten_1 (Flatten)          (None, 1024)              0
_________________________________________________________________
dense_4 (Dense)              (None, 64)                65600
_________________________________________________________________
dense_5 (Dense)              (None, 43)                2795
=================================================================
Total params: 124,715
Trainable params: 124,715
Non-trainable params: 0
_________________________________________________________________
DATASET: gtsdb
WARNING:tensorflow:From /home/matteo/PycharmProjects/seai_project/venv/lib/python3.8/site-packages/tensorflow/python/ops/array_ops.py:5059: calling gather (from tensorflow.python.ops.array_ops) with validate_indices is deprecated and will be removed in a future version.
…
